potability/assets/models/model_l1.tflite (tflite, 13104 bytes, 5 tensors)

sequential_1/dense_4/BiasAdd/ReadVariableOp f4 [32]
0	0x3db195b0	0.08671129
1	0x3d833172	0.06405915
2	0xbd47897f	-0.04871511
3	0xbd3a945f	-0.045551654
4	0x3dd51937	0.104052
5	0xbd57514a	-0.052567758
6	0xbd01794d	-0.031609822
7	0xbd162386	-0.03665497
8	0x3d09f9c8	0.033685476
9	0x3dd82baf	0.10555207
10	0x3db86f32	0.09005584
11	0x3dd41383	0.10355284
12	0xbd197fc8	-0.037475377
13	0x3d823af1	0.063588984
14	0xbd904139	-0.0704369
15	0x3d3c0968	0.045907408
16	0x3dc1a6f9	0.09455676
17	0xbc93c0c6	-0.018036257
18	0xbc16b106	-0.009197479
19	0xbd93eedd	-0.07223294
20	0xbd5caf7f	-0.053878304
21	0xbd50cc41	-0.05097604
22	0xbd29b367	-0.041430857
23	0xbcb0b0db	-0.021568706
24	0xbd4e19c6	-0.05031755
25	0x3de5e666	0.11225586
26	0x3d982ca4	0.074303895
27	0x3d823153	0.06357064
28	0xbc9aeee3	-0.018912738
29	0x3dd1c842	0.10243274
30	0x3cd5c3a6	0.026094269
31	0xbd17d70d	-0.037070323

sequential_1/dense_3/BiasAdd/ReadVariableOp f4 [64]
0	0x3dae28e6	0.085038945
1	0x3dba5a83	0.09099295
2	0xbc415c69	-0.011801817
3	0x3d55df05	0.05221464
4	0xbb6ddec4	-0.0036296109
5	0xbd5a7958	-0.05333838
6	0x3d8914f6	0.06693451
7	0xbd3b33e5	-0.045703787
8	0x3d686a8b	0.056742232
9	0x3dbcebde	0.092246756
10	0x3d282570	0.04105133
11	0x3d586545	0.052830953
12	0x3dc40ca2	0.09572722
13	0x3a4b0d3b	0.0007745807
14	0x3b64b06b	0.0034895192
15	0x3d472058	0.04861483
16	0x3d900467	0.0703209
17	0x3da6e1fc	0.08148572
18	0x3d8b4a30	0.068012595
19	0x3dd6f5eb	0.10496124
20	0x3cad3617	0.021143956
21	0x3d865124	0.06558445
22	0xbd6986d2	-0.05701334
23	0x3cc57eea	0.024108369
24	0x3ce25378	0.027627692
25	0xbbcd03c3	-0.006256552
26	0x3d3bb5e0	0.045827746
27	0x3d6fb60f	0.058523234
28	0x3d02330e	0.03178697
29	0x3c623148	0.013805695
30	0xbdd9299a	-0.10603638
31	0x3d880ac4	0.066426784
32	0x3ca8910e	0.02057698
33	0x3cc7dfae	0.024398651
34	0x3cb45aaa	0.022015888
35	0xbd350c04	-0.044200912
36	0x3d39cb3f	0.045359846
37	0xbdcab58b	-0.09897908
38	0x3df6e0cf	0.120545976
39	0x3b260c7d	0.0025337033
40	0x3d0bc0cc	0.034119412
41	0x3d586559	0.052831028
42	0x3e08b74e	0.13351175
43	0x3c11d446	0.008900708
44	0xbd08163f	-0.03322434
45	0x3d1b53a6	0.03792157
46	0x3d0aecec	0.033917353
47	0xbc2ae94a	-0.010431597
48	0xbcd568b7	-0.026050908
49	0x3dd126d9	0.10212488
50	0xbc2e61ca	-0.010643432
51	0xbe0009f7	-0.12503801
52	0xbd48996d	-0.048974443
53	0xbd8ce7c8	-0.06880146
54	0x3d98f81b	0.07469197
55	0x3d8468cb	0.064653
56	0xbcbe888c	-0.02325847
57	0xbd370575	-0.04468294
58	0xbb48c842	-0.003063694
59	0x3df317b7	0.118697576
60	0x3d51e694	0.051245287
61	0xbc6ae516	-0.014336845
62	0xbd4612c7	-0.04835775
63	0xbd4b3e44	-0.049619928

sequential_1/dense_3/MatMul f4 [64, 9]
0	0x3c227a21	0.009916813
1	0x3d8d3275	0.068943895
2	0xb9825c8f	-0.00024864494
3	0x3e2db2c2	0.16962722
4	0xbc0b617d	-0.00850713
5	0xb9efcb73	-0.00045737214
6	0x3af48a4d	0.001865694
7	0x3a87f0ac	0.0010371408
8	0xba4ac276	-0.00077346654
9	0x3e5041cd	0.20337601
10	0xbce334bf	-0.027735112
11	0xbe9286ac	-0.2861837
12	0xbe6e4295	-0.23267587
13	0xb9b20c47	-0.00033959953
14	0x3e11c425	0.1423498
15	0xbaafc16d	-0.0013409086
16	0x3d9877e7	0.074447446
17	0xbd06b1f2	-0.032884546
18	0xbdb6c4e0	-0.0892427
19	0xb9ce347c	-0.00039330486
20	0x3a16041d	0.0005722659
21	0x39249174	0.00015694444
22	0xbaa5ffee	-0.0012664774
23	0x38d83232	0.00010309032
24	0xb9992848	-0.00029212446
25	0x393eeb42	0.00018207452
26	0x3ad42962	0.001618665
27	0x3e6154e6	0.22005042
28	0xbe13f422	-0.14448598
29	0xbbb2ae34	-0.0054528955
30	0xbe81c377	-0.2534444
31	0x3bd0f0ee	0.0063763773
32	0x3dbdb387	0.09262758
33	0xbdb1caf3	-0.086812876
34	0xbdbab89d	-0.091172434
35	0xbe3d7db4	-0.18504983
36	0xb9738069	-0.00023222122
37	0x369fe010	4.7646536e-06
38	0x3691b7c4	4.34273e-06
39	0x37b6c828	2.1789296e-05
40	0x390af9fd	0.00013253833
41	0xb7b8913c	-2.200214e-05
42	0x3c8190a1	0.015816035
43	0xb8e8b82c	-0.00011096927
44	0x393901ad	0.00017643599
45	0x3e025b78	0.12730205
46	0xbe2d33ff	-0.16914366
47	0x3de391a2	0.11111762
48	0x3b289c40	0.0025727898
49	0xbe01ada0	-0.12663889
50	0x3af3e664	0.001860809
51	0xbd6c52ab	-0.057696026
52	0xbbfc03ec	-0.007690897
53	0xb9f97128	-0.0004757729
54	0x3c33dd62	0.010978075
55	0xbb01d499	-0.0019810556
56	0x3c16bbda	0.009200061
57	0x384bc872	4.858565e-05
58	0xbe64f53a	-0.22359172
59	0xbe054a09	-0.13016523
60	0x3b9cf8e3	0.004790412
61	0x3b0075c7	0.001960145
62	0x3dc9efac	0.09860167
63	0xba84e773	-0.0010139778
64	0xba8ddb52	-0.0010822809
65	0x3daa717d	0.083224274
66	0x3ab12d59	0.0013517543
67	0x3c69e650	0.014276102
68	0x3a2caf1c	0.00065873726
69	0xb97159b6	-0.00023016971
70	0xba0ea979	-0.00054421235
71	0x3933fd82	0.0001716521
72	0x3e909838	0.28241134
73	0xbdf5db93	-0.12004771
74	0xbe521716	-0.20516619
75	0xbdc8f4ac	-0.098122925
76	0xbd3ea4a8	-0.046543747
77	0xbd800c2e	-0.06252323
78	0xba652a03	-0.0008741917
79	0xbdeb809b	-0.11499139
80	0xbe505f8f	-0.20348953
81	0x3e5d86e2	0.21633485
82	0xbdb90fc5	-0.09036211
83	0x3dd9c289	0.10632808
84	0x3e21b69c	0.15792316
85	0xbcd2d2ef	-0.025735347
86	0xbc228d12	-0.009921329
87	0x3b59efcb	0.00332545
88	0x3dca5ee2	0.09881379
89	0x3e090c56	0.13383612
90	0x3b9d42ef	0.004799239
91	0xbbbd3af7	-0.0057748514
92	0x3a1dba3b	0.0006016825
93	0xb799c15c	-1.8329061e-05
94	0xbca63bd5	-0.020292202
95	0x39c31be9	0.00037214093
96	0x3b1940ae	0.00233845
97	0xb9b25433	-0.0003401354
98	0xb8c733cc	-9.4987074e-05
99	0xbeb27edf	-0.3486242
100	0x3de72929	0.112871476
101	0xbd63beaa	-0.055601753
102	0x3e8dafe0	0.27673244
103	0xbe9af41a	-0.3026436
104	0xbd5d113c	-0.053971514
105	0x3b4d9c53	0.0031373694
106	0xbd9e81e2	-0.07739617
107	0x3dba19c9	0.090869494
108	0x3ed59ef7	0.41722843
109	0x3ab13e7c	0.001352265
110	0xbad2cb34	-0.0016082288
111	0xbcf4d007	-0.029884351
112	0x3e6524a3	0.22377257
113	0xb98bde84	-0.00026677933
114	0xbddf0a62	-0.10890652
115	0x3ae659aa	0.0017574329
116	0x3bc1cb72	0.005914145
117	0xbe2b4ba2	-0.1672807
118	0x3e40016b	0.18750541
119	0xbe43a23b	-0.19104855
120	0xbd0e0ae0	-0.03467834
121	0x3eadb1f7	0.3392484
122	0x3dc16bd2	0.09444393
123	0xbd3c3ffb	-0.045959454
124	0x3bb905ac	0.005646428
125	0xbca3f769	-0.020015435
126	0xb718f3d0	-9.116673e-06
127	0xb9186f17	-0.00014537234
128	0xbcc33b81	-0.023832085
129	0xb8991631	-7.299742e-05
130	0xb90748df	-0.0001290175
131	0x3d3d3088	0.04618886
132	0xb889510f	-6.5477674e-05
133	0xb7ff0e4e	-3.040503e-05
134	0xb9484df5	-0.00019102528
135	0x397081d4	0.00022936548
136	0x3885b2e1	6.375253e-05
137	0xb9d44def	-0.00040493856
138	0x3e052bcb	0.13004987
139	0xbd845f33	-0.0646347
140	0x3a980ea5	0.0011601044
141	0x3e2ab44f	0.16670345
142	0x3a974323	0.0011540394
143	0x3a35c02d	0.00069332385
144	0xba8a7599	-0.0010563611
145	0xbb72c712	-0.0037044925
146	0x398934df	0.00026170068
147	0x3d86e118	0.06585902
148	0xbc189227	-0.009312189
149	0x39cde9bc	0.00039274793
150	0xbddfba58	-0.10924214
151	0xba4f62bc	-0.0007911136
152	0xbaa7f83f	-0.0012815072
153	0x3cfba5aa	0.030718643
154	0x3e093a09	0.13401045
155	0x3c72b4c1	0.014813603
156	0xbb0e6ac1	-0.002173111
157	0x39f36496	0.00046423514
158	0x3d771017	0.06031808
159	0xbc5c6b32	-0.013453292
160	0x3c83b7d7	0.016078873
161	0xbaaa6c67	-0.0013002277
162	0xbe8a9d3a	-0.2707308
163	0x3ae78d44	0.0017666002
164	0x3df057d2	0.117355004
165	0x393e9d08	0.0001817831
166	0xba92aa54	-0.0011189678
167	0xbd984ce1	-0.074365385
168	0xbc359e5d	-0.01108512
169	0xbb0ab542	-0.0021165167
170	0x3b231471	0.002488401
171	0x3e809a54	0.25117743
172	0x38ffdb20	0.00012200163
173	0x3ddac56d	0.10682187
174	0x3d2b1b78	0.041774243
175	0x3cf2fdeb	0.029662093
176	0x3c38da91	0.011282579
177	0x3a9421f1	0.0011301619
178	0x3b85fbac	0.0040888395
179	0xbe001753	-0.12508897
180	0x3e197133	0.14984588
181	0x3b35bbe9	0.0027730411
182	0x3d7df21b	0.061998468
183	0xbe72556e	-0.23665401
184	0x3e8d64d9	0.27616003
185	0xbdc01f83	-0.093810104
186	0xbb8f9ed0	-0.0043829456
187	0xbd9747b8	-0.07386726
188	0x3b352886	0.0027642562
189	0xbdce548f	-0.10074722
190	0x3cf26ce0	0.029592931
191	0xba885acc	-0.0010403036
192	0x3e237913	0.15964155
193	0x3b5673bd	0.0032722794
194	0x3a880ac0	0.001037918
195	0xbb6b3897	-0.0035891884
196	0x3e117f0f	0.14208625
197	0x399b9be8	0.00029680063
198	0x3e257379	0.1615733
199	0xbe80e9bc	-0.25178325
200	0x3dcbed4f	0.099573724
201	0x3d4db61c	0.0502225
202	0xbeb6f8fa	-0.3573683
203	0x3e3ea92e	0.18619224
204	0xbd158641	-0.036504988
205	0xbda188e5	-0.07887439
206	0xbe36f1b6	-0.17865643
207	0x3e8834c1	0.26602748
208	0x3d9bfb8e	0.076163396
209	0xbe44a741	-0.19204427
210	0xbe8350f7	-0.2564771
211	0x3da9833b	0.08276983
212	0xbb36b032	-0.0027876017
213	0xba242870	-0.0006262129
214	0x3c0b796f	0.008512839
215	0x3ca70293	0.02038697
216	0x3d6b492c	0.05744283
217	0xbb571881	-0.0032821002
218	0x3b013a7b	0.0019718695
219	0x3a9161fe	0.0011091826
220	0xbd62481b	-0.055244546
221	0xbdf099e5	-0.11748103
222	0xbd40bd6e	-0.047055654
223	0x3afed72c	0.0019442788
224	0x3a6b8656	0.0008984556
225	0x38b6aa8c	8.710203e-05
226	0x3e36fd2b	0.17870013
227	0xbd92ebc3	-0.07173874
228	0xbac05bda	-0.0014675811
229	0xbc84ba17	-0.016202016
230	0xb910ce3f	-0.00013809743
231	0x3a3b3fd8	0.00071429973
232	0xba1a07dc	-0.0005875805
233	0x380a4a08	3.297071e-05
234	0xbdb08658	-0.08619374
235	0xbb9d35e8	-0.004797686
236	0x3d4fc930	0.050728977
237	0x3d03afa4	0.032149926
238	0xbd0891c5	-0.03334214
239	0xbe081150	-0.13287854
240	0x3e536fbc	0.20648092
241	0x3b5c5101	0.0033617618
242	0xbe379997	-0.17929684
243	0xbe69b7ea	-0.22824064
244	0xbe08f66e	-0.13375255
245	0x3e58dfb9	0.21179093
246	0xbcad6ad6	-0.021169107
247	0x3df9efa2	0.122039095
248	0xbbad9900	-0.00529778
249	0xb86d26a0	-5.6541176e-05
250	0x3b375531	0.0027974362
251	0x3dbfa924	0.09358433
252	0x3ec2f153	0.3807474
253	0x3e1b0f3c	0.1514253
254	0x3d5d6b37	0.054057326
255	0xbe0a8ee3	-0.1353107

sequential_1/dense_4/MatMul f4 [32, 64]
0	0x3ce327c9	0.027728932
1	0x3e0bb188	0.13641942
2	0x3a032f6f	0.00050043216
3	0xbb9f3422	-0.0048585096
4	0xb9947080	-0.0002831258
5	0xbbe69bcd	-0.007037616
6	0x3a100967	0.0005494565
7	0xb8bb4c70	-8.9310925e-05
8	0x3dde71d9	0.108615585
9	0x3d2c0b0e	0.04200273
10	0x395c5a2a	0.00021014424
11	0x3e733d48	0.23753846
12	0x3d96e6a3	0.07368209
13	0xbd5eb72a	-0.054373898
14	0xb51e5c80	-5.899419e-07
15	0x3d0e101f	0.034683343
16	0xba7049e4	-0.0009166284
17	0xb99c486f	-0.00029808606
18	0x3d375730	0.044760883
19	0x3dc90991	0.09816278
20	0x3b42301e	0.002963073
21	0x3dc0e519	0.09418697
22	0xbe8bb50d	-0.27286568
23	0x3e35f221	0.17768146
24	0xbaa1db9b	-0.0012348773
25	0xbc9a90ea	-0.018867929
26	0xbac22749	-0.0014812733
27	0x3d9deb15	0.07710854
28	0xba3bdbca	-0.0007166235
29	0x3ab27ba8	0.0013617175
30	0x3a24f38f	0.00062923966
31	0xba15d9b6	-0.00057163404
32	0x3b1fc424	0.0024378384
33	0x3e0a0c22	0.13481191
34	0xbc0293a6	-0.007969772
35	0x389b58c6	7.407511e-05
36	0x3dab7a3a	0.08372922
37	0xbe2cd38d	-0.16877575
38	0x3e05a160	0.13049841
39	0x3c4061db	0.011742081
40	0x3db65b93	0.08904185
41	0xbb87a5ac	-0.0041396227
42	0x3d99448d	0.07483778
43	0xba8a7c6d	-0.0010565646
44	0xbe2f970d	-0.17147465
45	0x3e59ee13	0.21282224
46	0xbc90600a	-0.01762392
47	0x3de3a62c	0.11115679
48	0xbbc172b9	-0.0059035686
49	0x3e002688	0.12514699
50	0xbbb5590c	-0.005534297
51	0xbdc1eabf	-0.094686024
52	0xba0260c1	-0.0004973524
53	0x3db77259	0.08957357
54	0xbbcce9b0	-0.0062534437
55	0x3d4f3c1d	0.050594438
56	0xbdb04ac5	-0.08608011
57	0xbe4dda05	-0.20102699
58	0xbd897eaa	-0.067136124
59	0x3a7e3723	0.0009697547
60	0x3b4629da	0.0030237348
61	0xba92bb4b	-0.0011194734
62	0x3d513ca0	0.051083207
63	0xbe236863	-0.15957789
64	0xbd50d2c0	-0.050982237
65	0xbb041c4a	-0.0020158463
66	0x3dee67f3	0.116409205
67	0x3db41040	0.08792162
68	0xb87d3634	-6.037038e-05
69	0xba241f00	-0.0006260723
70	0x3b06a40a	0.0020544552
71	0x39872df1	0.00025783436
72	0xba9264a4	-0.0011168909
73	0xbad9194b	-0.0016563324
74	0x3ab4004e	0.0013733001
75	0x3e9864a5	0.29764286
76	0xbdf6dc75	-0.120537676
77	0xbe7a7573	-0.24458866
78	0x3d1f981d	0.038963426
79	0xbb47f2e7	-0.0030509771
80	0x3d4428ac	0.04789035
81	0x3a937c1b	0.0011252196
82	0x3e211319	0.15729941
83	0xbd0049ed	-0.0313205
84	0xbe063d1b	-0.13109247
85	0x3d401889	0.0468984
86	0xbe11bd58	-0.14232385
87	0xbb1ae523	-0.0023635111
88	0xbbee7644	-0.007277282
89	0x3a43bcce	0.0007466794
90	0x3e035f2a	0.12829271
91	0x3cfeea1f	0.031117497
92	0x39927af4	0.00027938897
93	0xb95c034b	-0.00020982062
94	0xb8a0103e	-7.63242e-05
95	0x3a91e4fe	0.0011130867
96	0x3c80315e	0.01564854
97	0x3d86e96f	0.06587493
98	0x3b546474	0.0032408508
99	0x3a9834f4	0.0011612461
100	0x3d69b1bb	0.057054263
101	0xba6a69a8	-0.00089421356
102	0x3e42438f	0.18971084
103	0x3b5e897d	0.003395646
104	0x3e5468a8	0.20743048
105	0x3957e77d	0.00020590234
106	0x3b498a87	0.0030752735
107	0x3b9cd9a2	0.004786686
108	0x3ac7b25a	0.0015235648
109	0xbdda7d19	-0.10668392
110	0x3d8d5292	0.06900515
111	0xbd5bb1f7	-0.053636517
112	0xbe4394da	-0.19099751
113	0xbb38d789	-0.002820464
114	0xbd9810e0	-0.07425094
115	0xbe250622	-0.1611562
116	0xb9d5faf1	-0.00040813492
117	0x3cc85501	0.024454596
118	0xbd94b278	-0.07260603
119	0xba57ac4c	-0.00082272734
120	0xbd1864f2	-0.037205644
121	0xbb89217c	-0.0041849
122	0xbb5fb758	-0.003413638
123	0x3e125184	0.14288908
124	0x3e551674	0.20809346
125	0xbe2bd148	-0.16779053
126	0xbd038b8e	-0.03211551
127	0xbb2915cc	-0.0025800345
128	0x3975fdee	0.00023459617
129	0x3ba9130e	0.005159742
130	0xb8b75864	-8.742584e-05
131	0x3cf000d1	0.029297264
132	0xb88f7d7e	-6.842146e-05
133	0x3e1d4323	0.15357642
134	0x3d6c750a	0.057728805
135	0x3934ece2	0.00017254383
136	0x3dc04ee4	0.09390047
137	0x3d9a29e0	0.07527518
138	0x34f69c00	4.5934576e-07
139	0xbb97fd99	-0.0046383855
140	0x3c0fda4e	0.008780075
141	0x3aa3caa5	0.0012496306
142	0xb78c2a3e	-1.6708971e-05
143	0x3baa3c8c	0.005195206
144	0x38292ea8	4.0336192e-05
145	0x3a32f7d9	0.00068270933
146	0xbb98ac06	-0.0046591787
147	0x3c29b4d6	0.010358056
148	0x3b32745c	0.002723
149	0xb9c3fbe6	-0.00037380977
150	0x3dc3e022	0.09564234
151	0x3b461dc2	0.003023014
152	0x3ab3accb	0.0013708113
153	0xba5ae0d3	-0.00083495415
154	0x3a98e2ed	0.0011664309
155	0x3a94e61c	0.0011360082
156	0x3bb01232	0.005373263
157	0x3b0a825c	0.002113483
158	0x389cb1f6	7.4718075e-05
159	0x3ae1b1f6	0.0017219174
160	0xb8490198	-4.792362e-05
161	0xb9fa950b	-0.00047794761
162	0xbac675ba	-0.0015141286
163	0xba0db600	-0.0005405843
164	0x3b0df61a	0.002166158
165	0x3b41ea69	0.0029589182
166	0x3d6f05c4	0.058355108
167	0xba67fa10	-0.0008849213
168	0x3a1272b5	0.00055865507
169	0x3b96a78d	0.0045976103
170	0xbd912e7d	-0.07088945
171	0xbb03cdbd	-0.0020111643
172	0x3bad4fe1	0.0052890633
173	0x3c0ab117	0.008465073
174	0x39a06508	0.00030592852
175	0x39304a6a	0.0001681239
176	0x3c978bd6	0.018499296
177	0x3ba785e5	0.005112397
178	0x3e184a98	0.14872205
179	0x394aef1f	0.00019353301
180	0xba1fb1d0	-0.0006091865
181	0x3d385cf5	0.045010526
182	0xbcabf95a	-0.020992924
183	0x3b80fdd8	0.0039365105
184	0x3d627ea3	0.05529655
185	0x3c9ec89d	0.01938277
186	0xb82f7e26	-4.1840736e-05
187	0x3b3cbece	0.0028800252
188	0xbb326d12	-0.0027225656
189	0xbdbdde09	-0.092708655
190	0x3b37fb83	0.0028073497
191	0x3c078ddb	0.008273567
192	0xb9d5e0d6	-0.00040794042
193	0x3a93871f	0.0011255479
194	0xb921ddec	-0.00015436829
195	0x3baa8fc9	0.005205129
196	0xb864410f	-5.4420027e-05
197	0x3a1640dc	0.00057317107
198	0xbb1ba4cc	-0.002374935
199	0x392ff3f1	0.00016780176
200	0x3b6e312e	0.0036345231
201	0x3b3f7067	0.0029211284
202	0xb9793637	-0.00023766687
203	0xbb159222	-0.0022822698
204	0x3b22455b	0.0024760577
205	0x38b41047	8.586101e-05
206	0x38ca2c60	9.640376e-05
207	0x3a178348	0.00057797553
208	0xba4a3802	-0.0007714034
209	0xb88461dd	-6.312479e-05
210	0xba864bf4	-0.0010246024
211	0x3b1c4fa0	0.002385117
212	0xb912aa2c	-0.00013987039
213	0x3784aec8	1.5817015e-05
214	0x3dc1cdda	0.09463091
215	0xb84aff6f	-4.8398444e-05
216	0xb8abe5cc	-8.1967184e-05
217	0xb929b5b6	-0.00016184789
218	0xb99aef1f	-0.00029551328
219	0xba1bc4c0	-0.0005942099
220	0x3aa56070	0.0012617242
221	0xb8f84b23	-0.00011839557
222	0xb8b096a8	-8.420396e-05
223	0x395312c7	0.00020129523
224	0xb8bbf7a8	-8.9629844e-05
225	0xba06df10	-0.0005144933
226	0xbaa1ae0d	-0.0012335196
227	0x37860354	1.5975595e-05
228	0xb9977c64	-0.00028893643
229	0xb9f2c463	-0.00046304156
230	0x3a511d42	0.0007977077
231	0xb91cbdc1	-0.00014948008
232	0xba7a6b10	-0.0009552697
233	0x38f40974	0.000116365874
234	0xb8b96b99	-8.841529e-05
235	0xb8a512d8	-7.871323e-05
236	0xbb0ca218	-0.002145892
237	0x399bb1fb	0.0002969651
238	0xb996c6ee	-0.00028758444
239	0x383b5d1f	4.4671e-05
240	0x3b8fa6b6	0.004383887
241	0x3b39559c	0.0028279787
242	0x3b89ad4f	0.004201568
243	0x397875c4	0.00023694994
244	0xba8d8956	-0.0010798376
245	0x38b64d08	8.6927845e-05
246	0x3b2dda58	0.0026527848
247	0x393e412a	0.00018144088
248	0x3bac7d74	0.0052639786
249	0x39c3684d	0.00037271008
250	0xb8091bcc	-3.2689233e-05
251	0x3d20be00	0.039243698
252	0xbb0956c5	-0.002095626
253	0x396ea9ba	0.00022760677
254	0xb9b5f947	-0.00034708736
255	0x3b3f1064	0.0029154057

sequential_1/dense_5/MatMul f4 [1, 32]
0	0xbed6e7c8	-0.4197371
1	0xbf12884e	-0.57239234
2	0x3eb4440d	0.3520817
3	0x3e135e79	0.14391507
4	0xbdc0af2f	-0.094084136
5	0x3ed7662a	0.42070132
6	0x388a1f19	6.586145e-05
7	0x3f023d95	0.50875217
8	0x3a04677a	0.00050508196
9	0xbdcd27a2	-0.10017325
10	0xbe83e384	-0.25759518
11	0xbeb24f3f	-0.34826085
12	0x3ef18fde	0.47180074
13	0x3b3801c4	0.0028077224
14	0x3f04058a	0.5157095
15	0x3a88a493	0.0010425024
16	0xbef44c9f	-0.47714707
17	0x3ece414a	0.40284187
18	0x3f14de22	0.5815145
19	0x3f0235d9	0.50863415
20	0x3edb7fb8	0.4287088
21	0x3a4542bd	0.00075248984
22	0xb91a7cbd	-0.00014733053
23	0x3e469b87	0.19395266
24	0x3d198c53	0.03748734
25	0xbe6b5308	-0.22980893
26	0x3b1b6363	0.0023710362
27	0xbef98237	-0.4873216
28	0x385eff4e	5.3166696e-05
29	0xbec18cd4	-0.37802756
30	0xbef92b24	-0.48665726
31	0x3edefb0e	0.43550915
